color_image_compressor_model.pth (torch, 158588 bytes, 8 tensors)

encoder.0.weight f4 [32, 3, 3, 3]
-0.038095124 -0.09835273 0.17341886 0.086602576 0.18851149 -0.09085918 0.13750087 0.2951477
-0.19527268 -0.038539942 -0.11939644 0.0117749125 0.13448907 0.26353157 -0.13729748 -0.0022483037
0.25232327 -0.023316618 -0.088019714 0.18018788 -0.116581716 -0.046059404 -0.05573363 0.059309423
0.18152444 0.2034501 0.18623585 -0.07272415 -0.13816935 0.17032756 0.20441125 0.13228936
0.17251095 -0.089098886 0.05466637 0.21897937 -0.1113224 -0.13142735 -0.053780325 0.0136947185
-0.030139377 -0.05368438 0.0920038 -0.15355618 0.017759832 -0.121369354 -0.0383313 0.018082712
-0.08147321 0.17001964 -0.11958328 0.049993917 -0.028229874 -0.01993802 -0.11364024 0.10459034
0.12450752 0.16014284 0.08347672 0.13611186 0.021336604 0.34839052 -0.19454573 -0.22218825
-0.050855007 0.22348759 0.03768737 0.36634272 0.037008446 0.2136705 0.21308514 -0.12221593
0.14757282 -0.1312693 -0.08697598 0.03904648 -0.23129328 -0.18441604 -0.12695004 0.016795013
-0.36054716 0.07324244 -0.10457856 0.15598279 -0.049738795 0.43950003 0.33016953 -0.10510583
0.16992685 -0.039973743 -0.037207566 0.052305434 -0.032264777 -0.12345704 0.102248415 0.25857636
0.09645477 -0.1604882 0.012422309 -0.00049529324 -0.12173072 -0.03632338 -0.14160906 0.28009284
-0.0058057676 -0.09040975 0.12499953 -0.0011617057 -0.11098581 0.06998003 -0.13489468 0.17427824
0.24355784 0.03679934 0.17122523 -0.12648717 -0.15839279 -0.05279719 0.012923214 -0.10703511
0.03651106 0.27406982 0.12972137 0.13697569 0.079475954 -0.018332396 -0.023025932 0.02626483
0.12866229 0.19609746 0.2642712 0.01179935 -0.0037136495 0.20312303 0.14683783 0.0073711774
0.10654168 0.029712241 0.0781582 -0.014693742 0.037763614 0.14247337 -0.013071969 0.17919783
0.13276207 0.19791692 0.042056255 0.15845092 0.18194607 0.13630423 0.19253507 0.14690705
0.21181838 -0.13174997 0.13505107 -0.08165599 0.062372923 0.09188247 -0.06705638 0.012794108
0.07541317 -0.013238469 0.15200469 -0.0015222268 0.23792371 0.4453946 0.2137888 0.4885549
0.06640518 -0.18595576 0.074673705 0.15359308 -0.08273724 0.24356267 0.14027715 -0.12302986
0.07149653 -0.034228645 -0.25501004 0.061083574 -0.06036795 -0.091268495 0.26765162 -0.11160227
-0.23202017 0.18418592 -0.0020637612 -0.25878707 0.22535492 0.04838056 0.09386113 0.032285374
-0.11491277 -0.15099429 0.098052636 -0.036848564 -0.102086596 -0.15258162 0.19283332 -0.10623196
0.073474035 0.15442622 0.15085809 0.10882293 -0.17406125 0.107084885 0.016687606 0.045884203
0.056516316 -0.18528359 0.021518525 -0.18946327 -0.17012 0.11618298 0.14224952 -0.03447541
0.11848732 -0.16371547 -0.12101325 -0.059215613 -0.107675426 0.05101172 0.008660951 0.014197617
0.024749817 0.060586613 0.10882791 -0.054454766 0.1577901 0.0792544 -0.14562769 -0.03347406
-0.14444664 -0.07158416 -0.13610682 -0.056421597 -0.11605832 -0.010453943 -0.17592233 0.029021872
-0.1649314 -0.17695706 -0.0007601725 -0.065451324 0.15334411 -0.04620143 -0.26596346 0.018491583
-0.14070646 -0.2096098 -0.11838307 0.016730515 -0.14720505 -0.045623533 0.11539652 -0.33868718
00000000: a209 1cbd 286d c9bd b794 313e b15c b13d
00000010: 2809 413e 6114 babd 07cd 0c3e 991d 973e
00000020: 90f5 47be 0fdc 1dbd 1f86 f4bd 90eb 403c
00000030: 81b7 093e 9ced 863e b697 0cbe 4758 13bb
00000040: 8430 813e 7e02 bfbc ae43 b4bd 2c83 383e
00000050: 65c2 eebd c9a8 3cbd f248 64bd 70ee 723d
00000060: 8be1 393e 3955 503e 9cb4 3e3e 66f0 94bd
00000070: 447c 0dbe 596a 2e3e 2f51 513e dd76 073e
00000080: b6a6 303e 7a79 b6bd d8e9 5f3d 213c 603e
00000090: 00fd e3bd e494 06be c248 5cbd d05f 603c
000000a0: dbe6 f6bc 27e4 5bbd 7d6c bc3d d53d 1dbe
000000b0: 117d 913c 7f90 f8bd 4801 1dbd 3222 943c
000000c0: 6ddb a6bd a119 2e3e 14e8 f4bd 6cc6 4c3d
000000d0: 5642 e7bc 0f55 a3bc 37bc e8bd 7633 d63d
000000e0: ccfd fe3d 7cfc 233e d8f5 aa3d e860 0b3e
000000f0: 1aca ae3c 3e60 b23e ff36 47be 5185 63be
00000100: 574d 50bd eed9 643e 125e 1a3d 4691 bb3e
00000110: 2b96 173d 71cc 5a3e fe32 5a3e 584c fabd
00000120: 541d 173e 766b 06be 7620 b2bd 34ef 1f3d
00000130: 25d8 6cbe 8fd7 3cbe 31ff 01be b295 893c
00000140: a399 b8be 2200 963d 492d d6bd f4b9 1f3e
00000150: e8ba 4bbd 2606 e13e fb0b a93e ba41 d7bd
00000160: 4e01 2e3e 82bb 23bd f666 18bd 393e 563d
00000170: 1228 04bd 0bd7 fcbd 9e67 d13d 1f64 843e
00000180: 148a c53d 0557 24be f186 4b3c 91d6 01ba
00000190: f54d f9bd d3c7 14bd f701 11be 5468 8f3e
000001a0: 4f3e bebb bf28 b9bd c1ff ff3d 6044 98ba
000001b0: 874c e3bd b151 8f3d d521 0abe ff75 323e
000001c0: 3a67 793e e8ba 163d ab55 2f3e da85 01be
000001d0: b831 22be de41 58bd e3bb 533c 3935 dbbd
000001e0: 9f8c 153d e152 8c3e aed5 043e 5b43 0c3e
000001f0: 4ac4 a23d d22d 96bc e1a0 bcbc 5729 d73c
00000200: 0cc0 033e c6cd 483e 8e4e 873e 1052 413c
00000210: b360 73bb 7cff 4f3e a85c 163e eb89 f13b
00000220: 8632 da3d 1667 f33c 6811 a03d 05be 70bc
00000230: 05ae 1a3d 8ae4 113e d02b 56bc a37f 373e
00000240: c8f2 073e bcaa 4a3e 2e43 2c3d f540 223e
00000250: 1250 3a3e 5693 0b3e ea27 453e cd6e 163e
00000260: ebe6 583e 77e9 06be d44a 0a3e 413b a7bd
00000270: c07a 7f3d e02c bc3d db54 89bd 619e 513c
00000280: 3872 9a3d 2ae6 58bc 1ea7 1b3e 7585 c7ba
00000290: 46a2 733e c30a e43e 74eb 5a3e de23 fa3e
000002a0: 70ff 873d 306b 3ebe 87ee 983d 8147 1d3e
000002b0: 2472 a9bd 7e68 793e d0a4 0f3e 14f7 fbbd
000002c0: c66c 923d 5633 0cbd ad90 82be c532 7a3d
000002d0: 6244 77bd faea babd a209 893e bb8f e4bd
000002e0: b296 6dbe 3c9b 3c3e 2b40 07bb bd7f 84be
000002f0: 71c3 663e b22a 463d 443a c03d ab3d 043d
00000300: 6357 ebbd 3f9e 1abe d2cf c83d 85ee 16bd
00000310: c712 d1bd 5b3e 1cbe 1976 453e 2490 d9bd
00000320: 8e79 963d e821 1e3e 8b7a 1a3e 8ede de3d
00000330: 1d3d 32be 524f db3d 72b4 883c 13f1 3b3d
00000340: a77d 673d fbba 3dbe 9e47 b03c a902 42be
00000350: f033 2ebe 58f1 ed3d dca9 113e 1636 0dbd
00000360: 7ba9 f23d 07a5 27be cbd5 f7bd 128c 72bd
00000370: ef84 dcbd aaf1 503d a9e6 0d3c 1f9d 683c
00000380: 21c0 ca3c ab29 783d 2be1 de3d f60b 5fbd
00000390: ba93 213e 2250 a23d 6d1f 15be 191c 09bd
000003a0: d2e9 13be b79a 92bd 965f 0bbe 551a 67bd
000003b0: fcaf edbd 0447 2bbc fc24 34be 47bf ed3c
000003c0: c7e3 28be 3b34 35be 5046 47ba 580b 86bd
000003d0: 3d06 1d3e b63d 3dbd 5d2c 88be a97b 973c
000003e0: 5b15 10be f4a3 56be d372 f2bd 6f0e 893c
000003f0: ecbc 16be bedf 3abd 0355 ec3d 6868 adbe

encoder.0.bias f4 [32]
-0.01261018 0.23753883 0.20528257 0.044576757 -0.098993264 -0.16405547 0.026144428 0.22057514
-0.104273684 0.3682489 0.017691338 0.09592735 -0.06524439 -0.1275348 0.018689204 -0.06721272
0.2595074 0.026076317 0.08464255 0.29174227 -0.005599574 -0.041268073 0.15709348 -0.06593567
0.14478177 -0.014403094 0.20369527 0.26894164 0.26873672 0.033660144 -0.18473707 -0.038692813
00000000: ee9a 4ebc 613d 733e 9835 523e 1e96 363d
00000010: fbbc cabd 28fe 27be d72c d63c 73de 613e
00000020: 718d d5bd 1f8b bc3e 6ded 903c 8f75 c43d
00000030: da9e 85bd 7c98 02be 1a1a 993c d3a6 89bd
00000040: 27de 843e 009e d53c 1359 ad3d 3e5f 953e
00000050: a27c b7bb b608 29bd 1ddd 203e 4809 87bd
00000060: ac41 143e f4fa 6bbc 7e95 503e b8b2 893e
00000070: dc97 893e 38df 093d b72b 3dbe 5b7c 1ebd

encoder.2.weight f4 [64, 32, 3, 3]
-0.049954478 0.040574823 0.072838865 0.10477474 0.004726106 0.0301679 -0.006591566 0.06293676
0.052277528 0.035614733 -0.057129834 0.027963925 0.090177864 0.04857135 0.06665404 -0.081300125
0.068242155 0.06410585 -0.07562548 0.0698717 -0.040724475 0.1546692 0.025020175 -0.1020509
-0.11340621 0.049964987 -0.06257367 0.043948554 -0.037774462 0.07991818 0.078404 -0.006955611
0.048529446 0.033236925 0.019668553 0.09677036 -0.08351097 0.04824933 0.032228235 0.10197153
-0.012652107 0.07086958 0.031881463 0.014281636 0.06745606 -0.033263274 0.053092852 0.055180244
0.019482762 -0.039533064 0.083442315 0.08452318 0.0036029392 0.090188146 0.018641286 0.06818256
-0.07097922 -0.0978812 -0.022997769 0.00020328644 -0.07482271 -0.06709686 0.06007525 0.026561402
-0.034019455 -0.027191907 0.049231 -0.010212041 -0.14981768 0.014816691 -0.02494194 -0.12650155
0.04367379 0.007356976 0.02589189 -0.053448457 0.017088862 0.0054186084 -0.016372358 0.022604836
-0.042317256 0.052401282 0.04141592 0.033128653 -0.11697537 -0.22430128 0.16926083 0.17862077
-0.03568587 -0.044097487 -0.0405981 0.022251701 -0.021097278 0.09170272 0.030357046 -0.03260991
-0.01178594 0.04399024 -0.035106216 0.014851306 -0.07099468 0.06198415 0.097846255 -0.025600724
0.026347859 0.10408315 0.0037350482 0.13178074 -0.012485945 0.003288248 0.03596685 -0.08877087
0.011544842 0.10370936 0.0336051 0.015266813 0.07449857 -0.035979476 -0.027946588 -0.01765478
0.028132338 -0.03326741 0.04963456 0.055047996 0.011827268 0.034953516 0.01061077 0.047577936
-0.03132549 0.059290297 0.0032216697 0.0040971786 -0.008810201 0.056651995 0.04627925 0.0028211693
0.04215139 0.09141632 0.06878139 -0.07650189 0.046310984 0.08068231 -0.025425818 0.10460381
0.13564293 0.012585273 0.15701795 -0.017859047 0.015378472 0.11330066 -0.010961134 0.03318244
0.03347975 0.03203227 0.09950545 -0.05344959 0.028595673 -0.07379083 -0.028615719 -0.029657258
-0.0060433485 0.008612553 0.05606086 -0.027919158 -0.008655766 -0.050821036 0.03541528 -0.057077073
0.05825484 0.009462829 -0.12224124 0.10713775 -0.020883078 0.08892302 -0.0047993246 0.022820247
0.06678173 0.0389971 -0.108585306 -0.034326654 -0.07042384 0.009694562 -0.033876825 0.073569186
0.003267866 0.084895395 0.048324116 0.0677633 0.02175194 0.04438681 0.017553737 0.043456327
0.07734982 0.057125457 0.06609705 0.0080804285 0.05965943 0.034015194 -0.022977388 -0.068723775
-0.0194329 0.10984162 0.034528468 -0.04788519 -0.028692333 -0.03304676 0.03299547 0.0069477074
0.019769685 -0.03250275 0.06760937 0.03139882 -0.021272255 0.023368243 0.082571335 0.00073186477
0.050096665 -0.03470946 0.032052975 0.076728016 0.019925965 -0.024895925 -0.006526958 0.016973732
-0.04328801 0.038898047 -0.010955741 -0.10041213 -0.07458918 -0.12524232 0.06383382 -0.122963086
-0.060034554 0.10296567 0.033474877 0.0139289275 0.035455402 0.0003252573 -0.021569384 0.01062107
-0.0024461807 0.024695648 -0.009245233 -0.05071961 -0.024677595 0.008675069 0.035008516 -0.06925198
-0.0015695977 -0.014630808 0.019128622 0.05057428 -0.059088152 0.04413102 0.040441155 -0.008307863
00000000: 119d 4cbd c931 263d 8b2c 953d 2494 d63d
00000010: 73dd 9a3b ac22 f73c 10fe d7bb fde4 803d
00000020: f620 563d c1e0 113d f900 6abd 9a14 e53c
00000030: 2caf b83d c0f2 463d ea81 883d ae80 a6bd
00000040: 8bc2 8b3d ee49 833d 88e1 9abd e518 8f3d
00000050: b5ce 26bd 9a61 1e3e 1cf7 cc3c 1000 d1bd
00000060: 8441 e8bd 16a8 4c3d a026 80bd 6603 343d
00000070: 65b9 1abd 25ac a33d 4792 a03d e5eb e3bb
00000080: d0c6 463d 7123 083d f21f a13c 8a2f c63d
00000090: cd07 abbd 17a1 453d c101 043d 73d6 d03d
000000a0: c84a 4fbc 1224 913d 2396 023d 86fd 693c
000000b0: 6726 8a3d 123f 08bd e477 593d ae04 623d
000000c0: 509a 9f3c 6ced 21bd cee3 aa3d 7d1a ad3d
000000d0: 4a1f 6c3b 90b4 b83d 9cb5 983c 4ca3 8b3d
000000e0: 8e5d 91bd f075 c8bd d165 bcbc 4a29 5539
000000f0: a63c 99bd 146a 89bd 7711 763d 4c97 d93c
00000100: fc57 0bbd 90c1 debc 72a6 493d 6850 27bc
00000110: ce69 19be b5c1 723c 0a53 ccbc 9f89 01be
00000120: 4ae3 323d ca12 f13b 3b1b d43c c5ec 5abd
00000130: f1fd 8b3c 958e b13b 531f 86bc c72d b93c
00000140: dc54 2dbd baa2 563d bda3 293d e9b1 073d
00000150: c890 efbd 3caf 65be b652 2d3e 5de8 363e
00000160: 592b 12bd 919f 34bd 314a 26bd 3349 b63c
00000170: 33d4 acbc a3ce bb3d 57af f83c f891 05bd
00000180: d119 41bc 1c2f 343d 89cb 0fbd e452 733c
00000190: a965 91bd 18e3 7d3d 9e63 c83d 9cb8 d1bc
000001a0: 77d7 d73c 8c29 d53d b6c7 743b 88f1 063e
000001b0: d991 4cbc a67f 573b fa51 133d 80cd b5bd
000001c0: 9426 3d3c 9365 d43d 80a5 093d a821 7a3c
000001d0: b592 983d 375f 13bd 3ef0 e4bc c2a0 90bc
000001e0: ca75 e63c 6843 08bd 9c4d 4b3d 027a 613d
000001f0: 28c7 413c 6b2b 0f3d ccd8 2d3c 15e1 423d
00000200: 284f 00bd 62da 723d a622 533b a041 863b
00000210: a958 10bc ec0b 683d 508f 3d3d 5ee3 383b
00000220: f0a6 2c3d 7b38 bb3d 42dd 8c3d 06ad 9cbd
00000230: 96b0 3d3d c43c a53d ce49 d0bc 863a d63d
00000240: fbe5 0a3e 7632 4e3c 50c9 203e 234d 92bc
00000250: fdf5 7b3c 2d0a e83d 5496 33bc 4fea 073d
00000260: 1022 093d 4534 033d 83c9 cb3d f5ed 5abd
00000270: 7941 ea3c a61f 97bd 836b eabc c7f3 f2bc
00000280: 4807 c6bb aa1b 0d3c 13a0 653d b8b6 e4bc
00000290: ead0 0dbc b829 50bd 9d0f 113d a6c9 69bd
000002a0: a19c 6e3d fb09 1b3c 9e59 fabd 096b db3d
000002b0: fd12 abbc 461d b63d a743 9dbb 87f1 ba3c
000002c0: dcc4 883d 6cbb 1f3d f961 debd 1b9a 0cbd
000002d0: 603a 90bd f1d5 1e3c 6dc2 0abd 71ab 963d
000002e0: b229 563b a3dd ad3d 82ef 453d 7cc7 8a3d
000002f0: 2031 b23c f2ce 353d dbcc 8f3c 43ff 313d
00000300: 9569 9e3d 62fc 693d e45d 873d c663 043c
00000310: 725d 743d 8453 0b3d 133b bcbc 0dbf 8cbd
00000320: bf31 9fbc a5f4 e03d b96d 0d3d 4323 44bd
00000330: 2f0c ebbc 0a5c 07bd 4226 073d 98a9 e33b
00000340: 09f4 a13c 9b21 05bd c876 8a3d 0d9c 003d
00000350: 2743 aebc c26e bf3c 291b a93d 9dda 3f3a
00000360: 2932 4d3d 822b 0ebd fb49 033d 9423 9d3d
00000370: c73b a33c 8af2 cbbc 18e0 d5bb 7f0c 8b3c
00000380: c54e 31bd 8f53 1f3d b57f 33bc e0a4 cdbd
00000390: 36c2 98bd 863f 00be 4ebb 823d 12d4 fbbd
000003a0: cbe6 75bd aadf d23d f41c 093d 2836 643c
000003b0: af39 113d 4c87 aa39 47b2 b0bc ff03 2e3c
000003c0: 1a50 20bb 874e ca3c 5179 17bc 5ebf 4fbd
000003d0: ab28 cabc e021 0e3c 1765 0f3d fbd3 8dbd
000003e0: f6ba cdba 0eb6 6fbc a1b3 9c3c fa26 4f3d
000003f0: 6b06 72bd bac2 343d a0a5 253d b41d 08bc

encoder.2.bias f4 [64]
-0.061989285 -0.035520528 0.087293334 0.07622298 0.10441613 0.19938003 0.05605416 0.13347721
-0.11000959 0.109705865 -0.034545913 -0.01670983 -0.05834213 0.07022594 -0.0869037 0.11180774
0.097428225 0.012477078 0.08568383 0.094751865 0.13682278 0.12033347 -0.11444818 -0.012347623
-0.05710206 -0.045321528 -0.064428 -0.007925595 0.010868128 -0.041894175 -0.01980618 0.01411468
0.10519796 -0.0891823 0.065973 0.08543477 -0.0013956558 0.1835762 0.13017166 0.018776005
-0.02518224 -0.043356918 -0.05577745 0.15557706 -0.04377519 -0.002722539 0.09197417 0.10513797
0.1519483 0.1444303 0.12631454 -0.039443295 0.110894844 -0.037836995 0.11898613 0.06742142
-0.08264187 -0.03885391 0.17312573 0.14921911 0.06803084 0.07728888 0.11343558 0.073468015
00000000: 7ae8 7dbd f97d 11bd d9c6 b23d cb1a 9c3d
00000010: 20d8 d53d 472a 4c3e 0c99 653d 40ae 083e
00000020: b54c e1bd 78ad e03d 0480 0dbd 0ee3 88bc
00000030: 28f8 6ebd 9ed2 8f3d 91fa b1bd 75fb e43d
00000040: 7388 c73d a86c 4c3c 017b af3d 440d c23d
00000050: 451b 0c3e 6571 f63d cf63 eabd af4d 4abc
00000060: dae3 69bd 11a3 39bd d4f2 83bd 5bda 01bc
00000070: 3c10 323c 3a99 2bbd 9240 a2bc 4241 673c
00000080: 0772 d73d 36a5 b6bd da1c 873d 6df8 ae3d
00000090: 70ee b6ba 66fb 3b3e b84b 053e 23d0 993c
000000a0: fc4a cebc 0697 31bd e576 64bd 984f 1f3e
000000b0: 9d4d 33bd a06c 32bb f45c bc3d 9352 d73d
000000c0: 5698 1b3e 89e5 133e 9958 013e 4b8f 21bd
000000d0: d61c e33d f7fa 1abd 00af f33d 3e14 8a3d
000000e0: 2440 a9bd 4725 1fbd df47 313e e5cc 183e
000000f0: c153 8b3d a249 9e3d ea50 e83d 6676 963d

decoder.0.weight f4 [64, 32, 3, 3]
-0.023455005 0.0154917585 0.039932314 0.050800983 -0.04096679 0.018854829 -0.035330463 -0.013640828
0.00043846204 0.05763934 0.013448234 0.0137438355 -0.079580665 -0.0055128857 0.029984403 0.034850664
0.034953814 -0.05651798 0.045387864 -0.024106264 -0.0021027436 0.075664766 -0.012434059 0.04717267
0.1007175 0.036385957 0.024148628 -0.070279144 0.028765848 0.12191625 -0.051174305 0.052805938
-0.011138447 -0.14103152 0.07348288 -0.1561518 -0.0727164 0.026962621 0.030958623 0.06723844
-0.09934287 0.012958641 -0.025604686 0.14883757 0.020683223 -0.027733907 -0.0064881817 0.06974322
0.054274246 0.047893792 -0.027417067 -0.109304175 0.08470165 -0.09994445 0.0061047534 0.017619727
-0.048937358 0.04325232 0.00534408 0.051165834 0.034543205 0.00025441573 0.042084828 0.0881884
-0.04340821 -0.017966112 -0.055516884 -0.02390466 -0.016697837 -0.009735539 0.015250264 0.03328532
0.05571144 0.07455685 -0.05864296 -0.027266229 0.041088 -0.05106664 -0.041646227 0.0060827136
-0.02008741 0.024590958 -0.04571539 0.016028559 0.033751465 0.011657205 0.012169532 0.07640597
0.03881186 -0.029201487 -0.043042086 -0.07792394 0.051074833 -0.018305259 -0.011909977 0.01352988
0.016440682 -0.020886911 -0.0601376 -0.04500439 -0.00624369 -0.075998195 -0.012889218 0.015358679
-0.014495872 -0.005840395 -0.0057761185 -0.01929395 -0.031036286 0.0044532204 0.045884978 0.09432847
-0.037718855 0.10439279 0.06559987 0.009777456 0.090976626 0.020477861 0.103153884 -0.062318947
0.010504177 -0.022518514 0.030039156 -0.0056173992 0.027045855 -0.005897994 0.00213222 -0.034781963
0.028938642 0.033442464 0.08374402 0.007451732 -0.010612129 -0.004668457 0.057008173 -0.047052555
0.02060128 -0.04598627 -0.015948638 0.007173474 0.036073495 -0.01317969 0.02321364 -0.039094217
-0.03146429 0.023723941 0.004469993 0.03545468 0.072996184 -0.046165463 -0.02401303 -0.023167117
-0.040924758 -0.013584726 -0.042186704 0.049119588 0.118947804 -0.040226083 0.09620651 -0.03057837
-0.03691972 -0.011706524 -0.003177018 0.019160835 -0.024799278 0.054024205 0.025317818 0.054647315
-0.0020143902 -0.064098515 -0.027690781 0.010976291 0.016351014 -0.08425049 -0.15521333 -0.0173106
-0.052138507 -0.01658526 -0.22219756 -0.0994198 -0.022449022 -0.042391222 0.041637965 -0.05545433
-0.018958706 0.046891194 -0.0015399966 -0.020774202 0.12374238 -0.0018025781 0.0033623148 0.059363533
0.028604237 -0.05149165 0.059832387 0.03907171 0.03382833 0.097314514 -0.07964022 0.04202954
-0.049729098 -0.028018031 -0.0048025474 0.041100238 -0.08528125 0.0556901 -0.029333211 -0.02550895
0.04465974 -0.0020364742 0.11935165 0.017986117 0.12907295 0.0023814514 -0.004734791 -0.004071051
-0.025648812 0.022513608 0.057592448 -0.031345744 0.008329045 0.040855836 -0.04042034 -0.0031518792
-0.13802011 0.052865595 -0.042727944 -0.04298445 -0.09463495 0.14516975 -0.06682183 0.04600439
-0.021314709 -0.0029710871 -0.0064326334 0.03648883 -0.017990448 0.11577256 -0.012206152 0.13380598
-0.033242792 0.0025070815 0.13920641 0.067399286 -0.033067066 0.008085171 -0.040622666 0.07574601
-0.0074463687 0.0074238447 -0.016242502 0.016901642 -0.02192716 0.011652172 0.014187553 -0.05038181
00000000: b624 c0bc 25d1 7d3c 1190 233d b114 503d
00000010: cbcc 27bd 7175 9a3c adb6 10bd c87d 5fbc
00000020: 61e1 e539 3b17 6c3d fb55 5c3c d32d 613c
00000030: 30fb a2bd 70a5 b4bb daa1 f53c 92bf 0e3d
00000040: bb2b 0f3d 667f 67bd a0e8 393d 807a c5bc
00000050: 2fce 09bb 21f6 9a3d 39b8 4bbc 2138 413d
00000060: fa44 ce3d 7109 153d 58d3 c53c 83ee 8fbd
00000070: 5ba6 eb3c 3aaf f93d 269c 51bd 0a4b 583d
00000080: 087e 36bc 916a 10be 317e 963d 42e6 1fbe
00000090: 56ec 94bd b7e0 dc3c f09c fd3c 4fb4 893d
000000a0: 4674 cbbd 7b50 543c ebc0 d1bc e068 183e
000000b0: dd6f a93c 3832 e3bc d09a d4bb 89d5 8e3d
000000c0: ac4e 5e3d 482c 443d c299 e0bc deda dfbd
000000d0: 0f78 ad3d adaf ccbd 620a c83b 3f57 903c
000000e0: 8a72 48bd 5829 313d 641d af3b 4493 513d
000000f0: 2d7d 0d3d 1a63 8539 2461 2c3d 1f9c b43d
00000100: cfcc 31bd ab2d 93bc ac65 63bd b5d3 c3bc
00000110: e7c9 88bc cf81 1fbc 3edc 793c 3056 083d
00000120: ae31 643d 43b1 983d 9a33 70bd 6d5d dfbc
00000130: e44b 283d 412b 51bd 3c95 2abd 8051 c73b
00000140: 5a8e a4bc fa72 c93c 1040 3bbd 534e 833c
00000150: fa3e 0a3d ddfd 3e3c b762 473c bc7a 9c3d
00000160: 2ff9 1e3d f537 efbc e64c 30bd 9696 9fbd
00000170: d833 513d e9f4 95bc 1022 43bc 6eac 5d3c
00000180: 9cae 863c 071b abbc d852 76bd 8656 38bd
00000190: de97 ccbb f1a4 9bbd 4c2d 53bc f8a2 7b3c
000001a0: 1880 6dbc c960 bfbb 9845 bdbb 590e 9ebc
000001b0: cf3f febc 52ec 913b e3f1 3b3d 492f c13d
000001c0: 167f 1abd e3cb d53d 3a59 863d 9f31 203c
000001d0: f451 ba3d 30c1 a73c 5842 d33d 2742 7fbd
000001e0: b619 2c3c bf78 b8bc ad14 f63c 2912 b8bb
000001f0: 458f dd3c f643 c1bb b7bc 0b3b 8877 0ebd
00000200: bb10 ed3c f7fa 083d fc81 ab3d a92d f43b
00000210: 7fde 2dbc dbf9 98bb 6781 693d 2eba 40bd
00000220: 04c4 a83c 195c 3cbd b8a6 82bc 760f eb3b
00000230: cdc1 133d a0ef 57bc 882a be3c 4221 20bd
00000240: b3e0 00bd b658 c23c 0579 923b ed38 113d
00000250: 067f 953d ff17 3dbd f9b6 c4bc f7c8 bdbc
00000260: b8a0 27bd 7892 5ebc f7cb 2cbd 9f31 493d
00000270: e89a f33d 1bc4 24bd eb07 c53d 7d7f fabc
00000280: 2239 17bd b8cc 3fbc 8435 50bb 2ff7 9c3c
00000290: db27 cbbc 7c48 5d3d 5067 cf3c ddd5 5f3d
000002a0: dc03 04bb 1546 83bd c7d7 e2bc e7d5 333c
000002b0: 90f2 853c 858b acbd 3ef0 1ebe f6ce 8dbc
000002c0: 308f 55bd d0dd 87bc c287 63be 9c9c cbbd
000002d0: 03e7 b7bc 6ba2 2dbd 928c 2a3d 1424 63bd
000002e0: 4a4f 9bbc fb10 403d b6d9 c9ba a92e aabc
000002f0: a56c fd3d 7c44 ecba 485a 5c3b 2d27 733d
00000300: 6f53 ea3c e9e8 52bd ce12 753d a809 203d
00000310: 938f 0a3d d54c c73d 691a a3bd 2b27 2c3d
00000320: bdb0 4bbd 1286 e5bc b05e 9dbb b958 283d
00000330: f0a7 aebd 4d1b 643d 344c f0bc 25f8 d0bc
00000340: 22ed 363d 5e76 05bb a36e f43d 9f57 933c
00000350: b32b 043e 2012 1c3b 4e26 9bbb 7366 85bb
00000360: 751d d2bc 756e b83c 0fe6 6b3d 6564 00bd
00000370: 8c76 083c 7358 273d cc8f 25bd c28f 4ebb
00000380: 2555 0dbe 9889 583d 7f03 2fbd 7610 30bd
00000390: f8cf c1bd 61a7 143e e2d9 88bd 196f 3c3d
000003a0: 2f9c aebc 92b6 42bb d7c8 d2bb 5075 153d
000003b0: b460 93bc 2a1a ed3d 50fc 47bc 6f04 093e
000003c0: 9829 08bd d94d 243b 208c 0e3e a308 8a3d
000003d0: 5571 07bd aa77 043c f463 26bd b920 9b3d
000003e0: ab00 f4bb b943 f33b ff0e 85bc 5075 8a3c
000003f0: 96a0 b3bc c0e8 3e3c e972 683c 285d 4ebd

decoder.0.bias f4 [32]
-0.09862027 0.11356618 -0.0598298 0.14719716 -0.06228097 0.16292976 -0.07907635 0.04234117
0.077416696 -0.09062257 0.111241214 0.111317426 -0.074238375 0.09537273 -0.05642399 -0.09579553
-0.09312522 -0.106992856 -0.0034393747 -0.039644957 -0.047442958 -0.007074085 0.050921347 -0.017190894
0.08603918 -0.06057393 -0.08359958 0.096691296 -0.055684697 0.1180826 0.06154275 0.12909539
00000000: 6df9 c9bd 6395 e83d 1810 75bd daba 163e
00000010: 551a 7fbd 0fd7 263e c8f2 a1bd ef6d 2d3d
00000020: a58c 9e3d 5398 b9bd 6fd2 e33d 64fa e33d
00000030: 4a0a 98bd c752 c33d d71c 67bd 7230 c4bd
00000040: 6fb8 bebd 121f dbbd 2267 61bb c062 22bd
00000050: 8c53 42bd bacd e7bb e792 503d ebd3 8cbc
00000060: 4f35 b03d 5f1c 78bd 4236 abbd 1606 c63d
00000070: a315 64bd 4ad5 f13d 4014 7c3d 9531 043e

decoder.2.weight f4 [32, 3, 3, 3]
0.07534765 -0.08636917 -0.011139303 0.1594439 0.044984702 0.07316367 0.22350878 0.21177928
-0.11396364 0.19544382 0.22584264 0.07978601 0.21041325 -0.025703643 0.037771232 0.17856307
0.014662164 0.03607407 -0.09712216 0.17814468 0.06643043 0.23157942 0.016132513 0.075495176
-0.06963893 -0.14952558 -0.11694243 -0.16098228 -0.19560896 -0.15601584 -0.16232187 -0.2532964
-0.15414466 -0.17613369 -0.2903213 0.021352094 -0.09652 0.024869611 0.024038076 -0.04774206
-0.2373918 -0.16204363 -0.15029427 -0.30568635 0.010811151 -0.13041492 -0.07873 -0.17708948
-0.0030494197 0.003915452 0.1510282 -0.20997356 -0.19231738 -0.009106544 -0.02418869 0.20934762
0.14064603 0.16366442 0.33965412 0.07363189 0.18923406 0.054607026 0.031176277 0.014120549
0.1203444 0.1488905 0.111423716 0.23042893 -0.10627706 0.047206447 -0.011958886 0.05295542
-0.007742773 0.17935531 -0.06068989 0.14999294 0.28371173 0.0007400257 0.029957857 0.0850806
-0.021271018 -0.065657325 -0.08794016 -0.25619298 -0.15873377 -0.05323671 -0.12841381 0.09228453
0.25618687 -0.046332274 -0.13458559 -0.09359062 -0.30261177 -0.22066735 -0.2421618 -0.32689452
-0.028974678 0.17351586 -0.12215398 -0.0006712616 0.01297942 -0.25486252 -0.08437955 -0.14940102
-0.19192074 0.049851295 0.17096375 -0.048308786 -0.21017267 -0.07170558 -0.0857589 0.11464442
0.029906485 0.037670106 0.24743614 0.32159886 0.20317806 -0.1981227 -0.018440232 -0.11637346
0.17304814 0.2090196 0.03361952 0.17805235 0.13410354 0.1306684 -0.19743435 -0.24942087
-0.095878586 0.15509146 -0.0538368 0.028615044 0.2286115 0.10867945 -0.16592646 -0.14010948
-0.017077183 -0.020481085 -0.13648713 -0.25772512 -0.45734745 -0.15060745 -0.15388611 -0.015184287
0.06190738 0.0002832994 -0.10871013 0.14211567 0.19718947 -0.2573937 0.11256712 -0.010096635
0.0351125 -0.19699892 -0.049779482 -0.1810038 0.008995367 0.12863308 -0.37493536 0.050317705
0.12684135 -0.1394129 0.12385211 -0.21796882 -0.20028855 -0.10878666 0.014468451 0.011502716
-0.09394058 -0.09922873 -0.035021108 0.18791124 -0.041781306 0.08800317 0.030795716 0.1498408
0.22817788 -0.18966933 0.08381792 0.08953809 0.20765977 0.07928305 0.07625109 0.027158193
0.31116787 0.2508493 0.010381392 0.2365912 0.15835649 -0.122924715 0.10234349 -0.015991386
0.01998216 0.18726829 0.25830674 -0.1860801 -0.18327628 -0.049063284 0.05811214 0.05754049
0.0033078473 -0.054148734 0.13397296 0.24128814 -0.3086061 -0.3418771 0.12681787 -0.06935264
0.032518692 0.06261222 -0.05432847 -0.06172284 -0.060631104 -0.2535313 -0.41581762 -0.20617099
0.1326066 -0.058926933 -0.12392921 0.25278056 0.1312749 0.028843941 0.17129831 0.21468209
0.0010629594 0.15956455 -0.34096852 -0.11392056 0.08479693 -0.43283516 -0.1796102 -0.021693861
-0.015962917 -0.02917396 0.1953325 -0.24690016 -0.36399832 0.09961964 -0.17883934 -0.18536572
-0.0067698867 -0.036672425 0.1654903 0.0090159755 0.10667077 0.07175611 0.18906571 0.04029697
0.023702225 -0.021099059 -0.14204563 -0.047093324 -0.108307146 -0.046140507 -0.1380695 0.026812676
00000000: de4f 9a3d 52e2 b0bd a081 36bc 4345 233e
00000010: e141 383d d6d6 953d 7cdf 643e abdc 583e
00000020: c565 e9bd 6d22 483e 4b43 673e d966 a33d
00000030: 9276 573e 7290 d2bc 02b6 1a3d 3dd9 363e
00000040: 9339 703c 67c2 133d fce7 c6bd 8f6b 363e
00000050: ad0c 883d 2823 6d3e 5528 843c 379d 9a3d
00000060: db9e 8ebd 3c1d 19be 837f efbd 8ad8 24be
00000070: b74d 48be 9ec2 1fbe b437 26be 11b0 81be
00000080: 19d8 1dbe 645c 34be fea4 94be 96ea ae3c
00000090: 47ac c5bd 5bbb cb3c 80eb c43c 2e8d 43bd
000000a0: d616 73be c4ee 25be bee6 19be ec82 9cbe
000000b0: 4121 313c 7d8b 05be 323d a1bd f256 35be
000000c0: c6d8 47bb 314d 803b 23a7 1a3e 4f03 57be
000000d0: d9ee 44be 9d33 15bc 5c27 c6bc 395f 563e
000000e0: 8305 103e a597 273e 25e7 ad3e 51cc 963d
000000f0: 93c6 413e 9eab 5f3d 6465 ff3c e059 673c
00000100: 2077 f63d c076 183e 1e32 e43d 90f5 6b3e
00000110: caa7 d9bd 8c5b 413d 34ef 43bc c8e7 583d
00000120: 16b7 fdbb eba8 373e f695 78bd c097 193e
00000130: aa42 913e 49fe 413a 2e6a f53c bd3e ae3d
00000140: 8f40 aebc 5977 86bd f819 b4bd ba2b 83be
00000150: 1b8b 22be bd0e 5abd e97e 03be acff bc3d
00000160: ed2a 833e e9c6 3dbd ced0 09be 70ac bfbd
00000170: eeef 9abe 9ff6 61be 43f9 77be b85e a7be
00000180: 4e5c edbc 24ae 313e de2b fabd 9af7 2fba
00000190: a2a7 543c 577d 82be 2fcf acbd 95fc 18be
000001a0: df86 44be df30 4c3d 1f11 2f3e 6fdf 45bd
000001b0: 8137 57be 60da 92bd 5da2 afbd b2ca ea3d
000001c0: 72fe f43c f84b 1a3d e65f 7d3e 9ba8 a43e
000001d0: e90d 503e ade0 4abe f80f 97bc 3555 eebd
000001e0: 8833 313e 3c09 563e 9fb4 093d 5b53 363e
000001f0: 7052 093e f0cd 053e 3b2c 4abe 2f68 7fbe
00000200: fe5b c4bd 4cd0 1e3e fa83 5cbd 196a ea3c
00000210: 2219 6a3e 5593 de3d a0e8 29be dc78 0fbe
00000220: 73e5 8bbc f3c7 a7bc 48c3 0bbe 8cf4 83be
00000230: 7229 eabe d738 1abe 5294 1dbe 84c7 78bc
00000240: 9892 7d3d cd87 9439 6ba3 debd c586 113e
00000250: 09ec 493e 1bc9 83be 9789 e63d 5b6c 25bc
00000260: 20d2 0f3d 16ba 49be 92e5 4bbd 0f59 39be
00000270: 4e61 133c 64b8 033e 87f7 bfbe f019 4e3d
00000280: b3e2 013e 41c2 0ebe 2da6 fd3d 3833 5fbe
00000290: 7118 4dbe 8acb debd 150d 6d3c e375 3c3c
000002a0: eb63 c0bd 6f38 cbbd 4b72 0fbd ce6b 403e
000002b0: e022 2bbd 023b b43d 4c47 fc3c de6f 193e
000002c0: 76a7 693e ad38 42be bba8 ab3d bf5f b73d
000002d0: c3a4 543e 275f a23d 8829 9c3d dc7a de3c
000002e0: 6551 9f3e 526f 803e b716 2a3c f744 723e
000002f0: 3428 223e f4bf fbbd 7799 d13d 5e00 83bc
00000300: a0b1 a33c 42c3 3f3e c840 843e c88b 3ebe
00000310: c7ac 3bbe 95f6 48bd ff06 6e3d 94af 6b3d
00000320: 78c8 583b 10cb 5dbd 3530 093e 3d14 773e
00000330: 9e01 9ebe 840a afbe 8bdc 013e c208 8ebd
00000340: 5232 053d d63a 803d 8887 5ebd 17d1 7cbd
00000350: 5258 78bd dbce 81be 0ce6 d4be 7d1e 53be
00000360: 06ca 073e 5e5d 71bd 99ce fdbd 746c 813e
00000370: ed6c 063e 214a ec3c d368 2f3e 9fd5 5b3e
00000380: 0053 8b3a e464 233e 6d93 aebe 2f4f e9bd
00000390: 03aa ad3d 929c ddbe bceb 37be 53b7 b1bc
000003a0: aac4 82bc 3bfe eebc 3e05 483e 65d3 7cbe
000003b0: fd5d babe 6205 cc3d a921 37be 83d0 3dbe
000003c0: edd5 ddbb d335 16bd 4a76 293e beb7 133c
000003d0: 3476 da3d def4 923d 719a 413e 700e 253d
000003e0: 2b2b c23c efd7 acbc 6974 11be eee4 40bd
000003f0: 23d0 ddbd d4fd 3cbd 1762 0dbe 42a6 db3c

decoder.2.bias f4 [3]
0.03924009 0.03548971 -0.08115356
00000000: 37ba 203d a85d 113d d633 a6bd
